model/EfficientCapsNetDeploy.pth (torch, 660698 bytes, 28 tensors)

conv1.weight f4 [32, 1, 5, 5]
0.053721167 0.041309215 -0.38130358 -0.2029037 -0.35713786 -0.16721511 -0.21386541 -0.42712307
-0.2861521 -0.0027526307 -0.4006093 -0.20945615 0.309193 0.5192995 0.31190935 -0.1816248
-0.011809316 0.5401392 -0.17211285 -0.2809829 -0.17142187 0.21776474 -0.24680215 0.26745927
-0.097245425 -0.10430941 0.05734568 0.14253332 -0.23971467 -0.09782192 -0.2116874 0.22319707
-0.14040893 0.3815314 -0.5264417 0.2575093 -0.24037187 -0.105686024 0.27365887 0.062379934
-0.030625807 -0.36698574 -0.27872765 0.48610488 -0.1323823 -0.15238908 0.37220344 0.23128252
-0.80369246 0.47242105 0.06740088 0.38678688 -0.5301182 0.6043671 -0.15467496 0.16984414
-0.26027068 -0.37382433 0.00623473 0.23701942 -0.46136332 -0.29419833 -0.056098163 -0.44434068
0.2044784 0.107556164 -0.20631585 -0.3686232 0.30623794 0.08982281 0.29504693 0.4839359
0.017793173 -0.7323222 -0.47738335 0.09560084 0.3243445 -0.015519108 0.056222957 0.116806395
0.11537534 -0.0025594581 0.1778761 -0.07332048 -0.17315604 0.33549866 -0.070786834 0.20663774
0.30319247 -0.051542986 0.16271459 -0.013866528 0.08898297 0.07566025 -0.45264897 -0.09685563
-0.18866087 -0.055871636 0.047719885 -0.33181873 -0.09058332 -0.04492555 0.12084473 -0.22950247
0.010161347 0.17588012 0.12681119 -0.11901466 -0.13085848 0.035532244 0.039265584 0.12478053
0.47382414 -0.0045078774 -0.34468085 -0.11505861 0.08394831 0.34944573 0.6125281 0.025601666
-0.11863071 -0.09770844 -0.609654 -0.35647917 -0.40950176 -0.18350093 -0.07449604 -0.2436758
0.12548868 0.23332334 0.1978261 -0.4953106 -0.089506224 -0.18195625 -0.07574165 -0.34654272
0.05502116 0.2492448 0.43418574 0.115193434 0.041622568 -0.3061419 0.31623015 0.50367576
-0.34857163 0.10657958 0.3777696 -0.14562285 -0.46619606 0.24780746 -0.22921905 -0.08016237
-0.23505609 -0.31419438 0.26993626 0.019491544 0.41127056 0.23008803 -0.06267844 0.6790264
-0.042362604 -0.027717529 -0.25070396 -0.24364522 0.32813928 0.33989584 -0.37216863 -0.09512434
-0.22673997 0.22791505 -0.09219798 0.0814126 0.12895435 -0.36377177 -0.057292625 0.37965745
-0.2859682 -0.050608817 -0.16101976 -0.36803702 -0.093834005 -0.42647913 -0.021389471 0.37612274
0.055061847 0.11477286 -0.16959646 -0.34703797 0.3679687 0.45284864 0.4193494 0.2669393
0.31340447 -0.09713214 0.46198168 -0.063848756 0.3177136 0.06331697 -0.2526914 -0.031165136
-0.286086 -0.31995845 0.42537642 0.25166562 0.64717424 -0.20775564 0.254711 0.070899926
0.042330053 -0.2379907 -0.30230778 0.18850051 0.30483684 -0.22150016 0.06572279 -0.037774157
0.036780998 -0.15238725 -0.3176306 0.035114184 0.013763007 0.039790835 0.32039165 -0.11753824
-0.0999903 0.2662266 -0.259336 0.16571374 0.49387574 -0.12600748 0.29731336 -0.29587838
0.029220348 0.07690926 0.29168925 -0.16192216 0.2385469 -0.06312247 0.100875676 -0.65932834
-0.3731302 -0.07921448 -0.11152929 -0.59189093 -0.28150645 0.29417023 -0.05859749 0.055865534
0.27621183 0.5280218 -0.21715723 0.041388504 -0.0041369414 0.046768393 0.3637128 0.12394884
00000000: ba0a 5c3d da33 293d 393a c3be fdc5 4fbe
00000010: c6da b6be 703a 2bbe 89ff 5abe e0af dabe
00000020: 8782 92be 7b65 34bb aa1c cdbe ac7b 56be
00000030: 8b4e 9e3e d0f0 043f 95b2 9f3e dafb 39be
00000040: dd7b 41bc 9046 0a3f 5a3e 30be fedc 8fbe
00000050: 3789 2fbe b8fd 5e3e b4b9 7cbe 6cf0 883e
00000060: 9c28 c7bd 2ca0 d5bd 4ee3 6a3d 41f4 113e
00000070: c377 75be dc56 c8bd 95c4 58be c68d 643e
00000080: 5cc7 0fbe 1558 c33e e2c4 06bf 42d8 833e
00000090: 0b24 76be ea71 d8bd 041d 8c3e 1a82 7f3d
000000a0: f9e2 fabc 8ee5 bbbe 64b5 8ebe bde2 f83e
000000b0: 3a8f 07be e20b 1cbe 7391 be3e 53d5 6c3e
000000c0: cabe 4dbf 2ce1 f13e 7909 8a3d ee08 c63e
000000d0: d4b5 07bf cdb7 1a3f 1d63 1ebe 9feb 2d3e
000000e0: 3342 85be e765 bfbe b54c cc3b 38b5 723e
000000f0: d037 ecbe 2aa1 96be 30c7 65bd 9f80 e3be
00000100: c962 513e 6846 dc3d 7644 53be 2ebc bcbe
00000110: 38cb 9c3e 05f5 b73d 6410 973e 72c6 f73e
00000120: fdc2 913c 7879 3bbf 976b f4be 60ca c33d
00000130: 7b10 a63e db43 7ebc 0b4a 663d 3138 ef3d
00000140: e849 ec3d 95bc 27bb 2725 363e 0c29 96bd
00000150: d14f 31be 7bc6 ab3e b0f8 90bd d898 533e
00000160: 0b3c 9b3e bd1e 53bd a79e 263e 6f30 63bc
00000170: b43c b63d c3f3 9a3d 9bc1 e7be 3f5c c6bd
00000180: 5130 41be a8d9 64bd ed75 433d 25e4 a9be
00000190: bf83 b9bd db03 38bd 717d f73d b202 6bbe
000001a0: c77b 263c eb19 343e cbda 013e f5bd f3bd
000001b0: c4ff 05be 428a 113d f3d4 203d ef8c ff3d
000001c0: 1499 f23e d1b6 93bb 027a b0be d9a3 ebbd
000001d0: 17ed ab3d 8dea b23e a4ce 1c3f 96ba d13c
000001e0: a8f4 f2bd 5d1b c8bd 4912 1cbf 7084 b6be
000001f0: 37aa d1be abe7 3bbe 6191 98bd 2686 79be
00000200: 1b80 003e 50ec 6e3e ed92 4a3e 5a99 fdbe
00000210: 0a4f b7bd bd52 3abe 701e 9bbd 0c6e b1be
00000220: de5d 613d 073a 7f3e 984d de3e 89ea eb3d
00000230: 6d7c 2a3d a2be 9cbe ebe8 a13e e5f0 003f
00000240: fb77 b2be 6546 da3d 046b c13e 281e 15be
00000250: 40b1 eebe 3dc1 7d3e 66b8 6abe 2b2c a4bd
00000260: 8bb2 70be 16de a0be 1635 8a3e bbac 9f3c
00000270: 0e92 d23e 329c 6b3e 8e5d 80bd add4 2d3f
00000280: 6984 2dbd df0f e3bc 455c 80be 227e 79be
00000290: df01 a83e d406 ae3e e38c bebe 8dd0 c2bd
000002a0: 862e 68be 9062 693e 4bd2 bcbd a6bb a63d
000002b0: 9c0c 043e 4b40 babe acab 6abd 7662 c23e
000002c0: 6d6a 92be 314b 4fbd 5de2 24be 596f bcbe
000002d0: 0b2c c0bd 795b dabe f938 afbc 2993 c03e
000002e0: 8888 613d 090e eb3d b2aa 2dbe f6ae b1be
000002f0: 6566 bc3e c7db e73e f7b4 d63e 45ac 883e
00000300: 8d76 a03e 37ed c6bd dd88 ec3e 23c3 82bd
00000310: 5bab a23e 54ac 813d c460 81be 074e ffbc
00000320: dd79 92be 98d1 a3be f0ca d93e 51da 803e
00000330: 36ad 253f e5bd 54be 7b69 823e fb33 913d
00000340: 4762 2d3d d6b3 73be 16c8 9abe 4706 413e
00000350: 9313 9c3e f0d0 62be ac99 863d 13b9 1abd
00000360: aca7 163d 670b 1cbe 7aa0 a2be e4d3 0f3d
00000370: 3c7e 613c b7fb 223d 600a a43e e4b7 f0bd
00000380: b7c7 ccbd da4e 883e b0c7 84be ddb0 293e
00000390: 48dd fc3e 1b08 01be 7539 983e 5f7d 97be
000003a0: 835f ef3c 9a82 9d3d 4b58 953e ecce 25be
000003b0: a345 743e 5b46 81bd e897 ce3d bec9 28bf
000003c0: ec0a bfbe 343b a2bd 7869 e4bd 2a86 17bf
000003d0: 9d21 90be 7b9d 963e ec03 70bd 42d3 643d
000003e0: a36b 8d3e 702c 073f 775e 5ebe fe86 293d
000003f0: 2e8f 87bb 3790 3f3d 9038 ba3e e4d8 fd3d

conv1.bias f4 [32]
0.12177161 -0.01866624 0.12384585 -0.047714803 0.12383574 -0.18180257 -0.073314376 -0.001199557
-0.14809102 0.10239149 0.016070006 -0.13387485 -0.17744142 0.022877866 0.13323098 0.1902511
-0.14469786 -0.00029774092 0.040685225 0.020314382 -0.14684376 -0.0077630356 -0.035666928 0.011467615
0.05864049 -0.031083237 0.007129459 -0.1789524 0.11907316 0.08581002 0.035528302 -0.0147595825
00000000: 6563 f93d f1e9 98bc e5a2 fd3d 9970 43bd
00000010: 989d fd3d 742a 3abe d925 96bd 743a 9dba
00000020: 2ca5 17be a1b2 d13d 3fa5 833c 7d16 09be
00000030: 34b3 35be 5d6a bb3c b46d 083e 2fd1 423e
00000040: ad2b 14be 1c1a 9cb9 8da5 263d 596a a63c
00000050: 365e 16be 1061 febb 7c17 12bd aae2 3b3c
00000060: 0331 703d 46a2 febc 3d9e e93b 4c3f 37be
00000070: a1dc f33d 2abd af3d 2086 113d 2dd2 71bc

batch_norm1.weight f4 [32]
1.1068579 0.95776296 0.99812925 0.8724323 1.2147243 0.8690484 1.0530751 0.7764373
1.0227269 1.0652603 1.1491297 0.91165376 1.0950913 1.083684 0.8277805 0.9334408
1.0936471 1.002196 0.9088537 0.96906364 0.9470536 1.0120844 1.0546364 1.0493203
0.9766761 1.1093931 1.0956534 0.9320229 1.1344374 0.977825 0.9259879 1.0399418
00000000: 85ad 8d3f f42f 753f 6685 7f3f b957 5f3f
00000010: 167c 9b3f f579 5e3f 2acb 863f 98c4 463f
00000020: b7e8 823f 735a 883f af16 933f 2462 693f
00000030: f42b 8c3f 28b6 8a3f 6ce9 533f faf5 6e3f
00000040: a1fc 8b3f f547 803f a3aa 683f 8e14 783f
00000050: 1b72 723f fb8b 813f 53fe 863f 2150 863f
00000060: 7207 7a3f 9800 8e3f 5f3e 8c3f 0e99 6e3f
00000070: 3f35 913f bd52 7a3f 8b0d 6d3f d01c 853f

batch_norm1.bias f4 [32]
-0.040094644 -0.0011595931 -0.15677921 -0.1364795 0.033310093 -0.028971838 0.013217701 -0.22480844
-0.07413075 0.10322117 -0.021468166 -0.13872136 -0.12187083 -0.10160721 -0.10873128 -0.14528733
-0.0076458794 -0.09473148 -0.12263897 -0.08044496 -0.039078932 0.073511176 -0.011413367 -0.061632518
-0.1347453 -0.05381423 0.045981817 0.026751377 0.023975486 -0.09356302 -0.13262984 -0.065840416
00000000: 483a 24bd 7dfd 97ba bb8a 20be 48c1 0bbe
00000010: 2a70 083d 5956 edbc 0e8f 583c 2f34 66be
00000020: ddd1 97bd 9f65 d33d 02de afbc f90c 0ebe
00000030: 6a97 f9bd 7117 d0bd 81ae debd 34c6 14be
00000040: 498a fabb 9402 c2bd 242a fbbd 54c0 a4bd
00000050: 3b11 20bd 078d 963d 22ff 3abc 6172 7cbd
00000060: acfa 09be 4f6c 5cbd 6e57 3c3d b425 db3c
00000070: 3d68 c43c f89d bfbd 1ed0 07be 57d7 86bd

batch_norm1.running_mean f4 [32]
-0.42246777 -0.18587723 -0.3693706 0.16801122 -0.025608005 -0.16554023 -0.057725005 0.42122725
-0.0014783628 0.104917206 0.18496826 -0.008791805 -0.2110523 -0.55745196 0.3897713 0.48752797
-0.37336025 0.14162827 0.10209198 0.042919107 -0.008119337 -0.21085002 -0.21834071 -0.13582392
-1.2543164 -0.31674647 0.05228825 -0.016478375 -0.009040553 0.38492265 0.1123028 -0.76471794
00000000: b24d d8be 9a56 3ebe 251e bdbe 220b 2c3e
00000010: e1c7 d1bc 6183 29be 0e71 6cbd 19ab d73e
00000020: a0c5 c1ba d5de d63d 5268 3d3e 810b 10bc
00000030: 181e 58be 2cb5 0ebf 1b90 c73e 449d f93e
00000040: 1329 bfbe 0007 113e 9a15 d13d f2cb 2f3d
00000050: f806 05bc 11e9 57be b594 5fbe 6d15 0bbe
00000060: 718d a0bf 982c a2be 342c 563d a8fd 86bc
00000070: d41e 14bc 9514 c53e 03ff e53d 8ec4 43bf

batch_norm1.running_var f4 [32]
0.53497654 0.14959961 0.55516094 0.29097295 0.30470437 0.24513043 0.2515212 0.501633
0.2694995 0.31535056 0.41825444 0.17707509 0.34621346 0.5080135 0.32037184 0.690559
0.38458276 0.52069885 0.26196286 0.24768476 0.23219599 0.59708846 0.19904134 0.45085987
1.6701494 0.52326787 0.32851318 0.35921982 0.5029759 0.22660619 0.19128905 0.6328228
00000000: 39f4 083f a430 193e 071f 0e3f 68fa 943e
00000010: 3602 9c3e 7903 7b3e 63c7 803e 056b 003f
00000020: d7fb 893e a175 a13e 7225 d63e 2c53 353e
00000030: e442 b13e 2c0d 023f c707 a43e 7ac8 303f
00000040: 08e8 c43e 854c 053f ff1f 863e 13a1 7d3e
00000050: c9c4 6d3e cada 183f 7ed1 4b3e 1bd7 e63e
00000060: 75c7 d53f e2f4 053f e132 a83e a9eb b73e
00000070: 07c3 003f 740b 683e 47e1 433e ad00 223f

conv2.weight f4 [64, 32, 3, 3]
-0.22220235 -0.12950148 -0.26130483 -0.0398967 -0.10618733 -0.27013642 0.055754352 -0.028043227
-0.22109976 -0.05412894 -0.080083124 -0.02853161 0.09310459 -0.018840384 0.05639279 0.070063435
0.07042474 0.04025291 0.2512013 0.03123191 0.030720025 -0.0061707883 0.17258984 0.18184935
-0.15197103 -0.16921008 0.17196643 0.113431446 -0.046319522 -0.00459144 0.1404138 -0.02634168
-0.013970129 -0.0106902225 -0.06425378 -0.09057414 -0.061366964 0.104637004 0.01718766 0.08971588
-0.17334087 -0.1489549 0.1708524 -0.07739563 -0.07696925 -0.06107901 -0.033280052 -0.12062241
0.09725616 -0.06496826 -0.073977396 -0.09452842 -0.09808571 -0.08587386 -0.22296715 -0.10764331
0.07535856 -0.07183331 0.048337337 0.086526684 0.09968372 -0.033252183 0.23098771 0.0628702
-0.0015443239 0.03420301 0.04093154 0.050659172 -0.086350575 0.15665004 0.004325911 -0.11325648
-0.1827791 -0.1810297 -0.07251434 -0.09127601 -0.18394844 0.0050664106 -0.17366168 0.050863896
0.072000206 0.0508401 0.09017247 0.046287205 0.21346493 0.081098214 0.05107439 0.20640723
0.037860036 -0.08388327 0.07577642 0.08115152 -0.017008537 -0.16742682 -0.067157984 -0.07870058
-0.11277328 -0.010223085 -0.043211877 -0.15206282 0.14444467 0.015400402 -0.15333469 0.013656532
-0.054233257 0.04844579 0.10836396 -0.058802314 0.07690573 0.05326839 0.20718996 0.053840484
0.02292884 0.23247997 -0.022006718 0.02986095 0.3129584 -0.055545364 0.021296227 -0.038040005
-0.15229687 0.053380225 0.12867332 -0.0746838 -0.04428435 -0.046164647 0.099163055 0.018474083
0.04277952 0.068021715 0.012692019 -0.019451842 -0.09408248 0.08753172 -0.024420869 -0.21109809
-0.16789246 -0.10280459 -0.0420317 -0.13673405 0.09230777 0.08721369 -0.13636443 -0.059857268
-0.10909645 0.09092394 -0.11631214 0.01492894 -0.13915837 -0.022613313 0.04482871 -0.08625196
0.12212622 -0.0009872876 -0.09018467 -0.07950856 0.03664578 0.017250502 0.07925748 -0.012549335
-0.075953744 0.1789717 0.042288817 -0.09249379 -0.051908642 -0.09909102 0.058845628 -0.0015466881
0.07230503 -0.0657853 -0.015403297 -0.05233138 0.09288213 -0.06860361 0.06847961 -0.202805
-0.021850431 0.10210089 -0.16392504 -0.09774801 0.0022720576 0.19477971 0.09806034 -0.054294586
0.14793932 -0.0014319536 0.13367307 0.16301352 0.15260272 -0.14837754 -0.08581078 -0.1287729
0.037019525 -0.041827697 0.02531527 0.03993812 -0.05786608 -0.0593602 0.050791416 -0.09559276
-0.11824354 0.050434317 -0.032071397 -0.04463005 0.13755862 0.10530547 -0.13496745 0.21308261
-0.035594143 0.2357694 -0.005018944 -0.019163638 0.0047711898 -0.03298049 0.11844241 0.06482463
-0.051161032 0.04647185 -0.262206 -0.116914235 -0.026469767 -0.1752085 0.057134207 -0.13307354
0.06193021 0.09626629 -0.18796545 -0.14984962 -0.12339187 -0.019472744 0.014410577 0.03884343
-0.1350271 -0.0708881 0.0035777285 -0.15182896 -0.040827382 -0.111506835 -0.052104305 -0.11349769
-0.23179345 -0.34284034 -0.10020528 -0.02859611 -0.139147 -0.18675102 0.060115915 -0.028186359
-0.009725272 0.06425292 -0.124666266 0.025687803 0.030343123 -0.027971629 0.09790082 -0.08581992
00000000: 0389 63be 099c 04be bfc9 85be b96a 23bd
00000010: be78 d9bd 524f 8abe ad5e 643d e9ba e5bc
00000020: fa67 62be 4fb6 5dbd 9f02 a4bd 1fbb e9bc
00000030: 9fad be3d 2657 9abc 20fc 663d 6b7d 8f3d
00000040: d93a 903d 3ce0 243d 759d 803e 10da ff3c
00000050: 90a8 fb3c 5334 cabb 64bb 303e b736 3a3e
00000060: 4b9e 1bbe 6845 2dbe f817 303e bf4e e83d
00000070: 8ab9 3dbd ca73 96bb a3c8 0f3e 82ca d7bc
00000080: f8e2 64bc 0b26 2fbc 7c97 83bd ef7e b9bd
00000090: ed5b 7bbd ed4b d63d 23cd 8c3c f6bc b73d
000000a0: 4580 31be a287 18be eef3 2e3e 9a81 9ebd
000000b0: 0ea2 9dbd fc2d 7abd aa50 08bd e208 f7bd
000000c0: 3d2e c73d 140e 85bd 7681 97bd 1e98 c1bd
000000d0: 29e1 c8bd a2de afbd 8051 64be 1974 dcbd
000000e0: 9755 9a3d 581d 93bd 5ffd 453d e734 b13d
000000f0: fa26 cc3d 7133 08bd 0b88 6c3e 17c2 803d
00000100: e96a caba 7518 0c3d d5a7 273d fe7f 4f3d
00000110: 92d8 b0bd de68 203e 5fc0 8d3b 03f3 e7bd
00000120: 722a 3bbe da5f 39be 6682 94bd ebee babd
00000130: fb5c 3cbe 2204 a63b 5ed4 31be a956 503d
00000140: d874 933d b53d 503d 58ac b83d a797 3d3d
00000150: 8d96 5a3e d216 a63d 6133 513d 6b5c 533e
00000160: 2013 1b3d feca abbd ab30 9b3d c532 a63d
00000170: 7d55 8bbc f071 2bbe 208a 89bd c52d a1bd
00000180: adf5 e6bd ba7e 27bc f0fe 30bd 5bb6 1bbe
00000190: 4ee9 133e f851 7c3c c503 1dbe a6bf 5f3c
000001a0: b123 5ebd 186f 463d eded dd3d b2da 70bd
000001b0: c080 9d3d f52f 5a3d 9b29 543e d787 5c3d
000001c0: 43d5 bb3c 3b0f 6e3e 6f47 b4bc f39e f43c
000001d0: 153c a03e 8983 63bd 6d75 ae3c d6cf 1bbd
000001e0: b6f3 1bbe 39a5 5a3d f0c2 033e d2f3 98bd
000001f0: 8263 35bd 2417 3dbd 0016 cb3d f656 973c
00000200: 9439 2f3d f84e 8b3d 30f2 4f3c 7859 9fbc
00000210: 51ae c0bd d543 b33d 460e c8bc 192a 58be
00000220: 00ec 2bbe 368b d2bd 6f29 2cbd 0304 0cbe
00000230: db0b bd3d 179d b23d 1ea3 0bbe e52c 75bd
00000240: f66d dfbd 5536 ba3d 0f35 eebd 8398 743c
00000250: 887f 0ebe 8e3f b9bc 4f9e 373d dea4 b0bd
00000260: 501d fa3d e067 81ba beb2 b8bd 62d5 a2bd
00000270: e319 163d ed50 8d3c bf51 a23d ba9b 4dbc
00000280: a38d 9bbd 5b44 373e 0a37 2d3d 626d bdbd
00000290: 289e 54bd 3cf0 cabd 1d08 713d 3eba caba
000002a0: a914 943d 72ba 86bd 1c5e 7cbc 6e59 56bd
000002b0: fc38 be3d 0d80 8cbd 0a3f 8c3d 1dac 4fbe
000002c0: adff b2bc 451a d13d f7db 27be 1c30 c8bd
000002d0: cde6 143b 5574 473e dcd3 c83d 0064 5ebd
000002e0: 687d 173e 64b0 bbba 98e1 083e 04ed 263e
000002f0: e343 1c3e 48f0 17be 90bd afbd 0bdd 03be
00000300: c9a1 173d 8553 2bbd f861 cf3c 2796 233d
00000310: fc04 6dbd ae23 73bd a90a 503d 23c6 c3bd
00000320: ab29 f2bd 3794 4e3d 4c5d 03bd 00ce 36bd
00000330: 2bdc 0c3e 65aa d73d e834 0abe 5432 5a3e
00000340: 2acb 11bd 896d 713e f475 a4bb 10fd 9cbc
00000350: a457 9c3b 8d16 07bd ef91 f23d c7c2 843d
00000360: 3b8e 51bd 4459 3e3d dd3f 86be bb70 efbd
00000370: 20d7 d8bc db69 33be 8f05 6a3d 6e44 08be
00000380: 88aa 7d3d 4327 c53d 047a 40be 2e72 19be
00000390: e0b4 fcbd 4e85 9fbc 571a 6c3c 4a1a 1f3d
000003a0: 8b44 0abe c82d 91bd 5378 6a3b 0d79 1bbe
000003b0: 9d3a 27bd b25d e4bd 536b 55bd 7a71 e8bd
000003c0: 435b 6dbe c588 afbe 6d38 cdbd 6442 eabc
000003d0: 8d7c 0ebe a93b 3fbe 1b3c 763d 14e7 e6bc
000003e0: bf56 1fbc 0997 833d 0751 ffbd 3a6f d23c
000003f0: 2492 f83c c224 e5bc 3a80 c83d 5bc2 afbd

conv2.bias f4 [64]
-0.030718006 -0.00069679576 -0.0519179 -0.045598313 -0.053798907 -0.033287015 -0.0328585 0.03235042
-0.033208746 0.0045777513 0.047720976 -0.027604701 -0.02876157 -0.02507198 -0.050918095 0.006145001
0.039158665 0.052845195 -0.039559234 0.0063594934 0.03871315 -0.011714713 -0.012508168 0.014287179
-0.052238215 -0.001636337 0.018668652 -0.02759782 -0.049162734 0.0008525917 -0.018940335 -0.0072380737
-0.025680939 0.058674198 -0.03335764 0.050707065 0.023608662 -0.023280706 0.018477462 -0.029908933
-0.008410002 0.046327613 0.05185147 -0.04178001 -0.04308621 -0.050251957 -0.02976728 -0.056766763
0.032070845 -0.021026606 -0.008827217 -0.04939902 -0.031651787 0.011156374 -0.016657429 -0.0001237968
-0.031280305 0.010928735 0.026383631 -0.040059615 0.0493734 -0.016224347 -0.032198157 0.058554094
00000000: 54a4 fbbc 2ca9 36ba dda7 54bd 4cc5 3abd
00000010: 3e5c 5cbd f757 08bd a296 06bd e081 043d
00000020: e505 08bd f600 963b 1277 433d 4123 e2bc
00000030: 629d ebbc c163 cdbc 7e8f 50bd 015c c93b
00000040: d664 203d 3474 583d dd08 22bd 4c63 d03b
00000050: ae91 1e3d 11ef 3fbc 0fef 4cbc c614 6a3c
00000060: bdf7 55bd 5c7a d6ba 00ef 983c d314 e2bc
00000070: dd5e 49bd 7680 5f3a c328 9bbc 5d2d edbb
00000080: d560 d2bc 5b54 703d 05a2 08bd 36b2 4f3d
00000090: f466 c13c 2eb7 bebc 0c5e 973c 9403 f5bc
000000a0: 1bca 09bc 06c2 3d3d 3562 543d 8421 2bbd
000000b0: 2a7b 30bd ffd4 4dbd 83da f3bc 4484 68bd
000000c0: b85c 033d fd3f acbc 08a0 10bc a056 4abd
000000d0: 4ea5 01bd 39c9 363c 2975 88bc 73cf 01b9
000000e0: c71f 00bd 700e 333c 7c22 d83c 8d15 24bd
000000f0: c33b 4a3d ece8 84bc 37e2 03bd 6bd6 6f3d

batch_norm2.weight f4 [64]
0.95029867 0.90093017 1.0362445 0.98603785 0.9851698 0.92551994 1.0063546 1.0415357
0.8945613 0.96217364 0.96504134 1.1283894 0.9771851 0.98676085 0.8718851 0.9508316
1.0557594 0.99664164 0.9189804 0.9567111 0.96434546 1.0632735 0.9546357 0.98309314
1.0279281 1.0311074 0.9049298 0.9459935 0.9642951 1.0425266 0.98105526 1.0263264
0.90945476 1.0011014 1.0863408 0.8923096 0.9512271 1.1522378 0.8938611 0.97116774
1.0549814 0.8903882 1.0047642 1.0884705 0.9257535 1.0944921 0.9493235 1.0541036
1.0752313 1.088126 1.0968292 1.0605749 0.996836 0.96389836 1.0281283 1.0511225
1.021318 1.0421942 0.9488027 1.021779 0.9873731 1.140266 0.96363217 0.9632656
00000000: c646 733f 5ca3 663f a9a3 843f fa6c 7c3f
00000010: 1734 7c3f e0ee 6c3f 3ad0 803f 0b51 853f
00000020: f801 653f 0351 763f f30c 773f 106f 903f
00000030: cd28 7a3f 5c9c 7c3f dd33 5f3f b369 733f
00000040: 2023 873f e823 7f3f 4d42 6b3f 05eb 743f
00000050: 58df 763f 5919 883f 0163 743f feab 7b3f
00000060: 2693 833f 54fb 833f 7ba9 673f a12c 723f
00000070: 0bdc 763f 8371 853f 7026 7b3f aa5e 833f
00000080: 07d2 683f 1724 803f 370d 8b3f 676e 643f
00000090: 9f83 733f 877c 933f 15d4 643f 739e 783f
000000a0: a109 873f 7bf0 633f 1d9c 803f 0053 8b3f
000000b0: 2efe 6c3f 5118 8c3f dd06 733f deec 863f
000000c0: 2ea1 893f b647 8b3f e664 8c3f ebc0 873f
000000d0: a530 7f3f 0bc2 763f b599 833f 2f8b 863f
000000e0: 8cba 823f 9f66 853f bce4 723f a7c9 823f
000000f0: 7cc4 7c3f 3cf4 913f 99b0 763f 9398 763f

batch_norm2.bias f4 [64]
-0.18318479 -0.1814847 -0.047484245 -0.160241 -0.24058096 -0.096900396 -0.06699936 -0.18310048
-0.15854898 -0.11029924 -0.118246056 -0.117458425 -0.11105042 -0.17762358 -0.09866876 -0.09871716
-0.13931376 -0.18547988 -0.16658814 -0.15211216 -0.08554872 -0.08334907 -0.25935093 -0.18862277
-0.11172225 -0.24217714 -0.17297947 -0.17375305 -0.10396471 -0.084609136 -0.13262573 -0.09467352
-0.17470516 -0.1916205 -0.08013241 -0.20342213 -0.16271782 -0.17779244 -0.19936799 -0.17240024
0.058309488 -0.17838414 -0.12745279 -0.031486433 -0.20935902 -0.12412499 -0.19043724 -0.07172742
-0.06323323 -0.03882325 -0.015042124 -0.079986535 -0.035348266 -0.2768626 -0.09358153 -0.09390863
-0.20064712 -0.081192605 -0.14233936 -0.072110005 -0.22838552 0.005065542 -0.19446784 -0.19985135
00000000: cb94 3bbe 20d7 39be d77e 42bd 3716 24be
00000010: db5a 76be b773 c6bd f636 89bd b17e 3bbe
00000020: aa5a 22be 91e4 e1bd fd2a f2bd 0b8e f0bd
00000030: 676e e3bd f5e2 35be d912 cabd 392c cabd
00000040: 44a8 0ebe 70ee 3dbe 1596 2abe 4ac3 1bbe
00000050: 2b34 afbd ebb2 aabd a5c9 84be 5426 41be
00000060: a3ce e4bd 49fd 77be 8821 31be 52ec 31be
00000070: 73eb d4bd 8e47 adbd 0acf 07be 31e4 c1bd
00000080: e9e5 32be 2a38 44be 761c a4bd e44d 50be
00000090: 809f 26be 390f 36be 1f27 4cbe b089 30be
000000a0: eed5 6e3d 55aa 36be fc82 02be ebf7 00bd
000000b0: 3662 56be 3e35 febd fb01 43be d3e5 92bd
000000c0: 6c80 81bd 2105 1fbd 3e73 76bc fbcf a3bd
000000d0: 58c9 10bd efc0 8dbe aca7 bfbd 2b53 c0bd
000000e0: 7076 4dbe 4f48 a6bd 69c1 11be 69ae 93bd
000000f0: e5dd 69be d9fc a53b 9422 47be d5a5 4cbe

batch_norm2.running_mean f4 [64]
-1.402345 -0.1296795 0.10512933 -1.2612636 0.2879112 -1.0437104 -0.6412036 -0.89619184
-0.6169664 -0.36557448 -2.1649914 0.5177326 1.2156509 -1.8044376 -0.7426206 1.4338161
-0.8775678 -0.81083137 -0.05852201 1.5748384 0.89798665 -0.61868274 -1.436904 -0.99723554
-0.59798974 -0.71326673 -0.7651841 -0.06755743 0.58417803 -0.3128195 0.02602377 -0.7963208
-1.7374246 -0.96410704 1.1413026 -0.9520227 -1.5290029 1.5910399 0.07280586 0.40505278
-1.8415326 0.5061603 2.1295884 -1.427495 -0.4888006 -0.42477766 0.20536241 -1.85932
-1.3310635 0.04197419 -0.7732844 -1.395535 -1.5202907 0.24438845 -1.0536492 -0.84785
-0.074316226 0.47717035 -0.2889193 -0.94041413 -0.9071956 1.593159 -0.7930253 0.45455924
00000000: 0a80 b3bf b4ca 04be 0c4e d73d 1671 a1bf
00000010: 1969 933e 4d98 85bf eb25 24bf d46c 65bf
00000020: 83f1 1dbf 942c bbbe 388f 0ac0 208a 043f
00000030: 739a 9b3f d0f7 e6bf 621c 3ebf 4987 b73f
00000040: 49a8 60bf a592 4fbf c6b4 6fbd 4e94 c93f
00000050: 74e2 653f fe61 1ebf 78ec b7bf d44a 7fbf
00000060: db15 19bf a698 36bf 1be3 43bf 8d5b 8abd
00000070: b18c 153f e129 a0be cd2f d53c aedb 4bbf
00000080: ee63 debf b8cf 76bf 3416 923f c2b7 73bf
00000090: 5eb6 c3bf 32a7 cb3f 3d1b 953d 1463 cf3e
000000a0: 57b7 ebbf b993 013f 2d4b 0840 28b8 b6bf
000000b0: 1244 fabe 757c d9be 864a 523e 33fe edbf
000000c0: 4a60 aabf 21ed 2b3d f7f5 45bf e4a0 b2bf
000000d0: e398 c2bf f740 7a3e fadd 86bf b30c 59bf
000000e0: 1b33 98bd ac4f f43e 3bed 93be fbbe 70bf
000000f0: f93d 68bf a2ec cb3f b503 4bbf fdbb e83e

batch_norm2.running_var f4 [64]
2.5698495 3.8075774 3.9783578 1.628925 1.6378136 1.718087 2.352827 2.9308639
2.8202958 1.7461858 2.3839562 1.8226013 2.9444659 1.1311514 1.364126 2.6197605
2.0146205 1.768578 2.2508664 1.9336255 3.8378816 1.7317677 1.5442754 1.6506666
3.1708906 1.3119309 2.0871377 1.5102944 2.2880743 1.7668084 1.8907756 2.952924
1.048771 1.8091332 1.6617956 1.8903817 1.0560505 1.3178651 2.0437937 1.6142782
3.418876 1.8840206 2.1804357 1.7650747 2.5211885 1.3066753 2.5194101 1.3793377
1.7014581 1.9717524 2.8275044 1.7184868 1.9801135 1.5116255 1.9151314 1.9784856
1.6461927 1.9551405 2.108567 1.9388751 1.0203068 1.4283558 1.6468365 1.7663456
00000000: 6a78 2440 59af 7340 6a9d 7e40 9d80 d03f
00000010: e0a3 d13f 46ea db3f b894 1640 4693 3b40
00000020: ba7f 3440 0483 df3f bd92 1840 004b e93f
00000030: 2172 3c40 92c9 903f ae9b ae3f 28aa 2740
00000040: 8bef 0040 c460 e23f 320e 1040 0a81 f73f
00000050: da9f 7540 90aa dd3f d1aa c53f 0b49 d33f
00000060: dfef 4a40 5aed a73f aa93 0540 5451 c13f
00000070: cf6f 1240 c726 e23f ef04 f23f b5fc 3c40
00000080: 213e 863f ad91 e73f b8b5 d43f 07f8 f13f
00000090: aa2c 873f ceaf a83f 84cd 0240 aba0 ce3f
000000a0: ddce 5a40 9627 f13f 428c 0b40 f8ed e13f
000000b0: 275b 2140 2341 a73f 043e 2140 238e b03f
000000c0: 61c9 d93f 6262 fc3f d5f5 3440 60f7 db3f
000000d0: 5c74 fd3f f27c c13f 0723 f53f 043f fd3f
000000e0: 71b6 d23f 0b42 fa3f c3f2 0640 0f2d f83f
000000f0: 6a99 823f 5dd4 b63f 8acb d23f 9d17 e23f

conv3.weight f4 [64, 64, 3, 3]
0.054043863 0.030060794 0.09072808 0.021271275 -0.0881806 -0.07780275 -0.05472495 -0.019869087
0.058819745 0.020904843 0.019579021 -0.0062829405 0.0046918914 0.106340505 0.01906426 -0.031414807
-0.018267335 -0.018045375 -0.03457155 -0.008943975 0.08158869 0.018553548 -0.053946976 -0.057693526
0.02826826 0.0753634 0.10714723 0.005199064 -0.05688683 0.029005062 0.08662683 -0.038728848
-0.006570341 -0.01919025 -0.12813516 -0.07830531 0.037241157 -0.08232437 0.004579565 0.028253637
-0.04615388 -0.06654961 0.045153756 -0.018821036 -0.04548381 0.07384916 0.06440696 -0.05373317
0.02591211 0.022966763 -0.013394569 0.019897755 0.14819 -0.0859173 0.055059053 -0.03929346
-0.084961414 0.0006424683 -0.043130312 -0.04725237 -0.0020639577 -0.021292472 -0.097213246 -0.0005665341
0.04944796 0.09331964 -0.006931359 0.011110841 0.031023974 -0.024811417 -0.0073155025 0.078549
-0.024110878 0.03648147 0.01960223 0.051524818 0.07700055 -0.0029078291 0.07542064 -0.004704837
-0.10162302 -0.11132839 -0.15806273 -0.14902905 0.0331869 -0.064416625 -0.007285129 0.06551529
0.06144721 0.020003239 0.0445425 0.0045957384 -0.036158096 0.07814172 0.025421707 -0.014155299
0.046995673 0.11176486 -0.031407136 0.004412306 0.06707606 -0.047948845 -0.117266595 -0.100315385
-0.0039162296 -0.072579674 -0.124528095 -0.21237399 -0.016697653 0.043593965 0.11524475 -0.024529807
0.025687002 0.07629298 0.038940493 -0.027725318 0.015823755 0.109112635 0.04228804 -0.016705234
0.081507936 0.011751589 0.081778415 -0.039139017 0.04324853 -0.052373588 -0.06455947 -0.05549381
-0.11396487 -0.12804611 -0.082258806 -0.14560759 -0.07559854 -0.058909174 0.043597113 -0.009509469
-0.08557133 -0.1483622 -0.16911373 -0.020970408 -0.17112817 -0.0020185497 0.004506752 -0.16892113
-0.11279584 -0.06515541 -0.14011876 -0.17504339 -0.11741817 -0.016476166 -0.23881385 -0.13331325
0.051167294 -0.05758219 -0.050438646 -0.02800582 -0.024634209 -0.064827904 0.07319156 -0.02109531
0.021542022 -0.017348966 0.16458492 0.22111562 0.17251877 0.10828922 0.006820788 0.056439716
0.08927685 -0.08493417 0.0736006 -0.1124624 -0.06773834 -0.1768748 -0.12477501 -0.11770561
-0.07947924 -0.12177282 -0.11765779 0.0036724475 -0.14027733 -0.050506793 0.057409827 -0.2375991
-0.13247794 0.02862428 -0.1621897 -0.105933376 0.09732372 -0.03391639 -0.07100024 -0.0131138675
0.0804188 0.022265797 0.04372063 0.121377505 0.138981 0.14093353 -0.06483986 -0.003205026
0.047407903 -0.044251267 0.0773748 0.032010082 0.032242343 0.014067282 0.041701946 0.012750621
-0.18261746 -0.21896683 -0.022116467 -0.13192908 -0.070282154 0.029419782 0.02550777 -0.036974903
-0.0728213 -0.09515425 -0.079826996 0.14284272 0.041712023 0.025097353 0.09568833 -0.0013724895
0.027601453 -0.068414874 -0.11287844 -0.12818623 -0.12851855 0.036114506 0.050745234 0.013200655
-0.017208725 -0.014087282 0.08202062 0.01577539 0.06142552 0.095632516 0.03079411 0.0044791717
-0.1010897 -0.035063837 0.012848798 0.03530766 -0.0586457 -0.026505644 0.038783383 0.08124664
-0.07754828 0.16957967 0.04875942 0.09498529 -0.024414875 -0.010527896 0.07448991 -0.13071351
00000000: 195d 5d3d 0e42 f63c a5cf b93d 1941 ae3c
00000010: 0898 b4bd 0c57 9fbd 4527 60bd 7fc4 a2bc
00000020: f9ec 703d a240 ab3c 2f64 a03c 20e1 cdbb
00000030: 70be 993b 0dc9 d93d a72c 9c3c d0ac 00bd
00000040: 61a5 95bc e5d3 93bc e69a 0dbd c089 12bc
00000050: f917 a73d 9cfd 973c 81f7 5cbd 0c50 6cbd
00000060: d792 e73c 2058 9a3d 0270 db3d e95c aa3b
00000070: 2a02 69bd 069c ed3c 6869 b13d 24a2 1ebd
00000080: 044c d7bb df34 9dbc dd35 03be 895e a0bd
00000090: 2f8a 183d ae99 a8bd 2d10 963b 2c74 e73c
000000a0: da0b 3dbd 294b 88bd 25f3 383d 932e 9abc
000000b0: 3b4d 3abd 3a3e 973d cce7 833d 5017 5cbd
000000c0: a245 d43c cb24 bc3c e574 5bbc 9e00 a33c
000000d0: 1fbf 173e 69f5 afbd 9a85 613d 2ef2 20bd
000000e0: 4000 aebd 516b 283a 69a9 30bd b38b 41bd
000000f0: 7743 07bb 8d6d aebc bd17 c7bd 7683 14ba
00000100: f289 4a3d 5e1e bf3d 7420 e3bb 3f0a 363c
00000110: fd25 fe3c 5041 cbbc e2b6 efbb 4cde a03d
00000120: 2d84 c5bc 986d 153d db94 a03c b00b 533d
00000130: 77b2 9d3d 4791 3ebb 2376 9a3d 092b 9abb
00000140: bb1f d0bd 2400 e4bd 32db 21be 129b 18be
00000150: fdee 073d ddec 83bd 17b8 eebb e12c 863d
00000160: 12b0 7b3d d5dd a33c 3272 363d d997 963b
00000170: 831a 14bd c408 a03d 2f41 d03c a1eb 67bc
00000180: 897e 403d fae4 e43d c5a4 00bd 1b95 903b
00000190: 2c5f 893d 0266 44bd 7829 f0bd 2772 cdbd
000001a0: b753 80bb a7a4 94bd 9608 ffbd 9178 59be
000001b0: 84c9 88bc 968f 323d 7105 ec3d bcf2 c8bc
000001c0: 8c6d d23c 7e3f 9c3d 1180 1f3d 3520 e3bc
000001d0: d2a0 813c 7276 df3d 3936 2d3d 6ad9 88bc
000001e0: a2ed a63d bd89 403c 717b a73d 3c50 20bd
000001f0: 5f25 313d b085 56bd c137 84bd 7a4d 63bd
00000200: 6a66 e9bd 851e 03be 4e77 a8bd 281a 15be
00000210: 68d3 9abd bf4a 71bd e392 323d 9bcd 1bbc
00000220: 0540 afbd 43ec 17be 262c 2dbe 22ca abbc
00000230: 393c 2fbe a549 04bb 60ad 933b a9f9 2cbe
00000240: 8101 e7bd 3370 85bd 4b7b 0fbe 933e 33be
00000250: f078 f0bd 06f9 86bc 9e8b 74be 4583 08be
00000260: cc94 513d 4ddb 6bbd c198 4ebd 766c e5bc
00000270: aecd c9bc 7ec4 84bd 75e5 953d 12d0 acbc
00000280: e578 b03c 6b1f 8ebc f388 283e 226c 623e
00000290: c3a8 303e bdc6 dd3d eb80 df3b 552d 673d
000002a0: c8d6 b63d f7f1 adbd e9bb 963d b052 e6bd
000002b0: 66ba 8abd ab1e 35be 0a8a ffbd a40f f1bd
000002c0: 03c6 a2bd 0764 f9bd 91f6 f0bd 72ad 703b
000002d0: dca4 0fbe 36e0 4ebd 9126 6b3d 2e4d 73be
000002e0: 4ca8 07be 777d ea3c 0f15 26be 99f3 d8bd
000002f0: a951 c73d eaeb 0abd 9368 91bd 8cdb 56bc
00000300: 9db2 a43d c366 b63c 6714 333d c594 f83d
00000310: 0951 0e3e e150 103e c3ca 84bd 6a0b 52bb
00000320: ca2e 423d d140 35bd ae76 9e3d 011d 033d
00000330: 8c10 043d 757a 663c a9cf 2a3d fbe7 503c
00000340: 1200 3bbe d738 60be 982d b5bc 6b18 07be
00000350: 17f0 8fbd c101 f13c acf5 d03c ff72 17bd
00000360: 5523 95bd 3be0 c2bd 567c a3bd 5d45 123e
00000370: 3ada 2a3d f798 cd3c 3ef8 c33d 1be5 b3ba
00000380: 711c e23c 191d 8cbd d02c e7bd 4043 03be
00000390: 5e9a 03be ceec 133d 3cda 4f3d 8f47 583c
000003a0: 50f9 8cbc 58ce 66bc 6dfa a73d 643b 813c
000003b0: 5399 7b3d fbda c33d ee43 fc3c 04c6 923b
000003c0: 1e08 cfbd 199f 0fbd c483 523c c49e 103d
000003d0: 7936 70bd 5d22 d9bc 53db 1e3d a364 a63d
000003e0: a2d1 9ebd 4ba6 2d3e f5b7 473d a687 c23d
000003f0: b401 c8bc 327d 2cbc 2a8e 983d c3d9 05be

conv3.bias f4 [64]
0.028120864 0.041053955 -0.00050150405 0.028179154 -0.018170558 -0.020422228 -0.036310088 0.002016321
-0.009521499 0.03806217 -0.0020542769 0.020411495 -0.0065547475 -0.03881093 0.016816346 0.015686113
0.038389068 -0.022774436 -0.030869916 -0.033329036 0.0056683877 0.029961921 0.004108301 0.00132255
0.031221237 -0.017408371 0.02087279 -0.0237532 -0.0015931448 -0.0065423613 -0.020584391 0.01144919
-0.025045265 0.034235757 0.019122496 0.025446074 -0.012504084 0.012007505 -0.031900123 0.0027834687
-0.0071834857 0.014417514 -0.025967784 0.01425485 -0.019997122 0.028595163 -0.02920069 -0.041183136
0.0025896584 -0.025102235 -0.0018229475 0.040856477 -0.033806916 0.030449485 -0.033820063 0.025717212
-0.03307691 0.0186779 0.036594365 0.040138617 -0.009845329 0.025562456 -0.030178383 0.028349163
00000000: ba5d e63c 3128 283d 5e77 03ba f8d7 e63c
00000010: 6cda 94bc 844c a7bc e3b9 14bd 4124 043b
00000020: 1000 1cbc 14e7 1b3d 0ca1 06bb 0236 a73c
00000030: 35c9 d6bb 36f8 1ebd 6fc2 893c 2a80 803c
00000040: db3d 1d3d 7491 babc e8e2 fcbc 0784 08bd
00000050: e2bd b93b b472 f53c ed9e 863b 6a59 ad3a
00000060: aec3 ff3c 009c 8ebc 6afd aa3c 1296 c2bc
00000070: 12d1 d0ba 4e61 d6bb 99a0 a8bc 6295 3b3c
00000080: ba2b cdbc cb3a 0c3d c8a6 9c3c 4974 d03c
00000090: eedd 4cbc 20bb 443c b4a9 02bd db6a 363b
000000a0: 7263 ebbb 7037 6c3c 64ba d4bc 2d8d 693c
000000b0: 01d1 a3bc 6740 ea3c 4936 efbc a6af 28bd
000000c0: 42b7 293b 34a3 cdbc f8ef eeba 1f59 273d
000000d0: 1f79 0abd 3371 f93c e886 0abd e7ac d23c
000000e0: a77b 07bd 6502 993c f9e3 153d 6468 243d
000000f0: 4e4e 21bc 5b68 d13c a838 f7bc 813c e83c

batch_norm3.weight f4 [64]
1.0010263 0.9619622 1.0278776 0.9557491 0.9913344 0.9943014 0.8844956 0.97088313
0.9542479 0.8029106 1.0568638 0.9015765 0.9965068 1.0525173 0.9039641 1.0252528
0.89717156 1.0354939 0.99677736 0.92761034 1.1083663 0.9686095 0.989558 1.0010557
0.9961933 1.0263923 0.9421911 0.9901758 1.1179233 0.84923357 0.9603183 0.913031
0.9970542 0.877478 0.9910791 1.045555 0.93483424 0.8283078 1.0169533 0.93308073
0.9928134 1.0994403 1.0038508 0.9807607 0.9139936 0.9590052 0.96705806 0.9932982
0.91486233 1.0291096 0.9943581 0.9587832 0.96136683 0.98878866 1.0525056 1.02089
0.9960338 0.9659485 1.0050216 0.88996583 0.9554976 0.92882466 0.9477979 0.9089096
00000000: a121 803f 2843 763f 7e91 833f f9ab 743f
00000010: 17c8 7d3f 898a 7e3f 4e6e 623f cc8b 783f
00000020: 9749 743f 8d8b 4d3f 5047 873f b8cd 663f
00000030: 121b 7f3f e3b8 863f 316a 673f 7c3b 833f
00000040: 09ad 653f 108b 843f cd2c 7f3f df77 6d3f
00000050: f2de 8d3f cbf6 773f ac53 7d3f 9822 803f
00000060: 8606 7f3f d360 833f 7033 713f 297c 7d3f
00000070: 1c18 8f3f 5f67 593f 6cd7 753f 66bc 693f
00000080: f23e 7f3f 66a2 603f 5cb7 7d3f bfd4 853f
00000090: 4c51 6f3f fb0b 543f 872b 823f 61de 6e3f
000000a0: 0529 7e3f 76ba 8c3f 2f7e 803f 2213 7b3f
000000b0: 7cfb 693f 5d81 753f 1e91 773f ca48 7e3f
000000c0: 6b34 6a3f ddb9 833f 418e 7e3f d172 753f
000000d0: 231c 763f 4121 7d3f 81b8 863f 86ac 823f
000000e0: 12fc 7e3f 6748 773f 8ca4 803f cdd4 633f
000000f0: 7e9b 743f 74c7 6d3f e2a2 723f 4dae 683f

batch_norm3.bias f4 [64]
-0.19563738 -0.27281776 -0.18885805 -0.22845323 -0.30472425 -0.14763752 -0.25720778 -0.29461944
-0.16564873 -0.16760886 -0.16014488 -0.40269053 -0.10049827 -0.21787998 -0.23627856 -0.23015298
-0.22136699 -0.16913335 -0.24866198 -0.3293766 -0.38924417 -0.15150605 -0.21846627 -0.19363049
-0.3182179 -0.19641487 -0.12562545 -0.19567432 -0.24996722 -0.32176712 -0.13448206 -0.19555435
-0.16549593 -0.21220389 -0.15862265 -0.3224114 -0.2854436 -0.27193093 -0.18254228 -0.096549146
-0.15659593 -0.13793182 -0.24728414 -0.23286796 -0.16693187 -0.2377148 -0.21076441 -0.2882883
-0.26853046 -0.24989729 -0.28511405 -0.1501051 -0.14530726 -0.23244134 -0.12465765 -0.04920889
-0.1858332 -0.2023727 -0.38863754 -0.2350472 -0.19631614 -0.2999185 -0.31449622 -0.29045224
00000000: 2a55 48be c5ae 8bbe 0164 41be a5ef 69be
00000010: d104 9cbe 4a2e 17be bdb0 83be 5cd8 96be
00000020: d29f 29be a8a1 2bbe 05fd 23be 742d cebe
00000030: 09d2 cdbd ee1b 5fbe 02f3 71be 39ad 6bbe
00000040: 07ae 62be 4b31 2dbe 3fa1 7ebe 0da4 a8be
00000050: 034b c7be 6724 1bbe 9fb5 5fbe 1247 46be
00000060: 75ed a2be fb20 49be f5a3 00be d95e 48be
00000070: 68f7 7fbe a9be a4be aab5 09be 663f 48be
00000080: c477 29be fa4b 59be fa6d 22be 1b13 a5be
00000090: aa25 92be 883a 8bbe 5dec 3abe 8fbb c5bd
000000a0: af5a 20be 003e 0dbe 0e38 7dbe f074 6ebe
000000b0: 30f0 2abe 826b 73be a0d2 57be 869a 93be
000000c0: d37c 89be 13e5 7fbe 78fa 91be 27b5 19be
000000d0: 6dcb 14be 1a05 6ebe 834c ffbd 438f 49bd
000000e0: 0f4b 3ebe ca3a 4fbe 80fb c6be 37b0 70be
000000f0: 1907 49be eb8e 99be a605 a1be 28b6 94be

batch_norm3.running_mean f4 [64]
-2.306765 -0.2894226 -1.9273037 -1.5936755 0.20495054 -1.1283855 -1.8049289 0.93050665
-1.0250747 0.96079874 0.97937244 -0.6960674 -1.8096962 -0.49405974 -0.39370546 -2.926458
-2.7722714 -1.5345471 1.156856 -0.49654275 1.1221844 -1.5186298 -2.9966843 0.24601124
-0.12751168 -2.3543932 -1.949643 -1.6162212 -0.06867934 -2.9853795 -1.7379996 0.27201205
-1.387069 0.3947548 0.34321234 -2.1848176 2.4940736 0.0041420683 -1.3425572 0.7774499
-0.18380943 -1.3509138 -0.010205297 -0.1316834 -1.0903708 -1.0211124 -0.7559398 1.5622302
0.47132558 0.96075225 -0.49251533 -0.85698664 -3.1969054 -0.18652235 -1.3693731 -1.3403926
-0.8893605 1.393777 -1.8099755 0.93561405 0.8181572 1.4856128 -1.1272591 0.12037612
00000000: 0aa2 13c0 332f 94be e3b1 f6bf 8ffd cbbf
00000010: 8ede 513e f06e 90bf e907 e7bf af35 6e3f
00000020: a635 83bf e8f6 753f 27b8 7a3f 7931 32bf
00000030: 20a4 e7bf 66f5 fcbe c393 c9be 164b 3bc0
00000040: e56c 31c0 0a6c c4bf db13 943f da3a febe
00000050: bda3 8f3f 7662 c2bf adc9 3fc0 5fea 7b3e
00000060: 6c92 02be 61ae 16c0 e78d f9bf 56e0 cebf
00000070: c1a7 8cbd 7510 3fc0 c576 debf 2a45 8b3e
00000080: 7a8b b1bf 4d1d ca3e 87b9 af3e 0dd4 0bc0
00000090: e79e 1f40 30ba 873b ead8 abbf f506 473f
000000a0: 8a38 3cbe beea acbf 1e34 27bc 03d8 06be
000000b0: 4591 8bbf d0b3 82bf 4585 41bf 29f7 c73f
000000c0: 9651 f13e dcf3 753f f82a fcbe 7a63 5bbf
000000d0: 199a 4cc0 b7ff 3ebe 9e47 afbf fc91 abbf
000000e0: 21ad 63bf 4967 b23f 47ad e7bf 6784 6f3f
000000f0: c072 513f 8f28 be3f 074a 90bf c187 f63d

batch_norm3.running_var f4 [64]
2.6144974 6.718316 2.647619 2.7529662 6.5469875 2.6711833 3.8740525 3.640694
5.3655167 3.4807668 2.6655686 4.721032 2.9104335 3.5954275 3.1692023 3.3135297
5.2789354 2.8580465 4.117718 3.6493714 3.2830143 4.330118 3.600629 2.4712727
3.67082 3.4278753 3.4963892 2.541871 3.8823812 4.6540704 2.6269128 2.720257
2.4067922 2.651157 3.5766842 5.582868 5.7354608 2.9709194 3.440877 3.1370893
3.5867689 2.351785 2.9910328 4.352677 7.163556 3.0657566 3.1554697 5.0261
2.718266 3.5633512 3.0600784 6.056257 2.919195 4.6379 2.963335 2.303379
3.0342228 3.0368097 4.7958765 5.5092087 4.333188 4.1328635 4.6135263 3.1428068
00000000: ed53 2740 72fc d640 9772 2940 9930 3040
00000010: ec80 d140 abf4 2a40 7af0 7740 2101 6940
00000020: 50b2 ab40 e2c4 5e40 ad98 2a40 b212 9740
00000030: 8b44 3a40 7c1b 6640 36d4 4a40 df10 5440
00000040: 0aed a840 3cea 3640 59c4 8340 4d8f 6940
00000050: e81c 5240 5490 8a40 b570 6640 5529 1e40
00000060: b7ee 6a40 4f62 5b40 d7c4 5f40 04ae 2240
00000070: ef78 7840 25ee 9440 571f 2840 b118 2e40
00000080: e208 1a40 8eac 2940 65e8 6440 dba6 b240
00000090: e588 b740 8b23 3e40 5437 5c40 12c6 4840
000000a0: 9f8d 6540 a583 1640 156d 3f40 2149 8b40
000000b0: da3b e540 5b35 4440 37f3 4940 d0d5 a040
000000c0: 12f8 2d40 f20d 6440 53d8 4340 dbcc c140
000000d0: 17d4 3a40 ad69 9440 48a7 3d40 906a 1340
000000e0: b530 4240 175b 4240 d277 9940 704b b040
000000f0: 7aa9 8a40 6b40 8440 02a2 9340 bf23 4940

conv4.weight f4 [128, 64, 3, 3]
0.12206938 0.074043736 0.08742799 -0.041507494 0.06916647 0.08435817 0.13590822 0.1688657
0.0064335456 -0.086824305 0.12333899 -0.02578966 -0.04735734 -0.02710744 -0.032689676 -0.053904906
0.04881189 0.016155398 0.0848255 0.015377692 0.14124341 -0.037641134 0.023494748 0.14107578
-0.014709371 0.10145189 0.005398193 0.005993488 -0.02513508 -0.034981005 -0.074928485 -0.13024785
-0.05724915 0.046775922 0.08970289 -0.052881345 0.055235274 0.04116253 -0.006100726 -0.033703953
-0.06866696 -0.17267029 -0.09965201 -0.0375422 -0.17424 -0.04709568 -0.13624312 -0.14398223
-0.05152598 -0.006183918 -0.1479958 -0.017609883 -0.14356437 -0.11353795 -0.16301253 -0.020232601
0.0068181893 -0.053338394 0.044844273 0.008749453 -0.1513869 -0.116929285 -0.19391583 0.12313881
0.08419403 0.0849416 0.011656518 0.09800476 -0.07084315 -0.032660123 -0.026865674 0.08590363
-0.013877916 -0.03498999 -0.14608201 -0.18488175 0.012844145 -0.016216004 0.0013690339 0.07740171
-0.01709448 -0.017216109 -0.003490224 -0.07788865 -0.10589078 -0.07614047 0.02199629 -0.012783032
-0.09688492 -0.07643417 -0.038407408 0.0023740218 0.00027230784 0.0574533 0.034885556 0.017163707
0.11162213 0.12568949 0.041430105 -0.00070619985 -0.20388027 -0.030324535 -0.060782377 -0.106653646
-0.05335909 0.05546667 -0.06301293 0.023962365 0.029913183 -0.072903596 -0.057945643 -0.024790471
0.085442536 -0.03366671 0.04802045 0.04091409 -0.0039831377 0.114909545 -0.023145052 -0.11129296
0.02904847 0.030988127 -0.10435018 0.098887324 -0.024401374 -0.020586502 0.03872012 -0.022437872
0.015669739 -0.009656472 -0.05626532 -0.16290776 -0.12031922 -0.10072338 -0.07659304 0.13488269
-0.007397775 -0.022590002 0.18210708 -0.011733254 -0.15270981 -0.00018744537 -0.095707916 -0.08974029
-0.10391192 -0.05967802 -0.08721678 -0.20068891 -0.110104986 0.024672892 -0.3593053 -0.09488057
-0.12820625 -0.19634102 -0.1948853 -0.0759693 -0.058146168 -0.09981254 -0.11485865 -0.1287485
-0.15636104 -0.102204256 0.068747 0.009286083 -0.03729044 -0.054031324 0.13843617 0.018506512
-0.017512722 0.1037172 -0.05654333 0.041416 -0.056968328 0.05974944 0.06030451 -0.016237244
-0.00579722 -0.11524668 -0.0029977611 0.040375892 0.035674818 0.077689625 0.087346956 0.18482664
-0.031922467 0.0462536 0.07473858 0.095375225 -0.07703505 -0.0655354 -0.087198764 0.007031358
-0.042987555 -0.09543972 0.02049613 0.0024728116 0.014940383 0.01968447 0.0019406314 -0.01640003
0.0041455342 -0.018778346 -0.018856155 0.04455319 0.013513988 -0.039903663 -0.04571468 0.07938763
0.039125476 -0.014564872 0.00020971915 -0.03828288 -0.11262501 -0.047862753 -0.082897656 -0.018625282
-0.020631919 -0.028855158 0.13879664 -0.08842965 0.03483165 0.07088265 -0.01782316 -0.07655862
0.053549137 0.052551284 0.042222347 -0.026784588 -0.048554584 -0.027500944 0.04838273 0.025121195
-0.0006372167 -0.04535424 -0.11268844 -0.05044748 0.048622657 -0.018475614 0.031848658 -0.06626787
-0.11507197 -0.020291405 -0.017428191 -0.041008316 -0.017579488 -0.11055409 -0.14652812 -0.11460443
-0.020931229 -0.10095176 -0.15397659 -0.040443975 -0.056136984 -0.02938095 0.09814273 0.011146153
00000000: 83ff f93d 3ea4 973d 720d b33d c303 2abd
00000010: 26a7 8d3d fac3 ac3d 862b 0b3e 21eb 2c3e
00000020: 7ed0 d23b f1d0 b1bd 2799 fc3d d644 d3bc
00000030: c5f9 41bd 6c10 debc 9ce5 05bd 64cb 5cbd
00000040: faee 473d 5358 843c feb8 ad3d b7f2 7b3c
00000050: 1da2 103e 972d 1abd 0f78 c03c 2b76 103e
00000060: 93ff 70bc 02c6 cf3d 53e3 b03b 0565 c43b
00000070: 15e8 cdbc 3e48 0fbd 1b74 99bd b15f 05be
00000080: 167e 6abd 1c98 3f3d 26b6 b73d 1c9a 58bd
00000090: 623e 623d 0b9a 283d 99e8 c7bb 280d 0abd
000000a0: 43a1 8cbd 7bd0 30be 5a16 ccbd dac5 19bd
000000b0: f86b 32be 66e7 40bd 5183 0bbe 1470 13be
000000c0: e80c 53bd 77a2 cabb 368c 17be 9a42 90bc
000000d0: 8a02 13be 9686 e8bd c2ec 26be d7be a5bc
000000e0: 1e6b df3b 5c79 5abd a1ae 373d de59 0f3c
000000f0: 2b05 1bbe 9f78 efbd df91 46be 3330 fc3d
00000100: eb6d ac3d ddf5 ad3d fbfa 3e3c b8b6 c83d
00000110: 3716 91bd 9fc6 05bd 6715 dcbc 3eee af3d
00000120: 3360 63bc aa51 0fbd 8696 15be a451 3dbe
00000130: 4070 523c 6dd7 84bc 2871 b33a ca84 9e3d
00000140: b909 8cbc cc08 8dbc 3ebc 64bb 1684 9fbd
00000150: 44dd d8bd 89ef 9bbd 9031 b43c ec6f 51bc
00000160: 9a6b c6bd 8589 9cbd 1651 1dbd 7a95 1b3b
00000170: 8ac4 8e39 2754 6b3d 28e4 0e3d e79a 8c3c
00000180: 259a e43d bfb4 003e 9db2 293d 4520 39ba
00000190: fdc5 50be 296b f8bc f1f6 78bd 3a6d dabd
000001a0: 108f 5abd 0531 633d ec0c 81bd b94c c43c
000001b0: 7e0c f53c 7b4e 95bd 6958 6dbd 6315 cbbc
000001c0: 7ffc ae3d 1be6 09bd 17b1 443d 8895 273d
000001d0: fb84 82bb b255 eb3d b19a bdbc 90ed e3bd
000001e0: 0ff7 ed3c d0da fd3c 8cb5 d5bd 7085 ca3d
000001f0: 64e5 c7bc 06a5 a8bc fd98 1e3d a1cf b7bc
00000200: d35d 803c 2e36 1ebc 7776 66bd 4bd1 26be
00000210: ec69 f6bd 0f48 cebd d0dc 9cbd b01e 0a3e
00000220: 0969 f2bb ab0e b9bc 477a 3a3e d63c 40bc
00000230: f65f 1cbe fc8c 44b9 8302 c4bd c2c9 b7bd
00000240: c6cf d4bd f170 74bd b69e b2bd 6581 4dbe
00000250: b97e e1bd ce1e ca3c ddf6 b7be bf50 c2bd
00000260: 8048 03be 9f0d 49be 0390 47be cb95 9bbd
00000270: ad2a 6ebd 846a ccbd 033b ebbd a6d6 03be
00000280: 1c1d 20be 7750 d1bd 3acb 8c3d a824 183c
00000290: dcbd 18bd f34f 5dbd 36c2 0d3e f89a 973c
000002a0: d776 8fbc af69 d43d fb99 67bd d3a3 293d
000002b0: 9f57 69bd d4bb 743d dd01 773d f803 85bc
000002c0: 9bf6 bdbb 7406 ecbd 1676 44bb 3161 253d
000002d0: c21f 123d bd1b 9f3d f6e2 b23d 3243 3d3e
000002e0: 22c1 02bd 6a74 3d3d 8a10 993d 1654 c33d
000002f0: 8dc4 9dbd 6c37 86bd 4495 b2bd 4e67 e63b
00000300: b813 30bd e675 c3bd 80e7 a73c e50e 223b
00000310: 82c8 743c 5341 a13c c95c fe3a 5b59 86bc
00000320: 43d7 873b 0cd5 99bc 3978 9abc 687d 363d
00000330: c669 5d3c 0672 23bd 513f 3bbd fb95 a23d
00000340: 0942 203d 80a1 6ebc 0ee8 5b39 82ce 1cbd
00000350: f1a7 e6bd bc0b 44bd 3fc6 a9bd 0c94 98bc
00000360: 4504 a9bc a761 ecbc b520 0e3e 9b1a b5bd
00000370: a2ab 0e3d ec2a 913d e001 92bc c4ca 9cbd
00000380: 5756 5b3d 0440 573d 57f1 2c3d 5a6b dbbc
00000390: 2ce1 46bd a949 e1bc f82c 463d f7ca cd3c
000003a0: e40a 27ba 5ec5 39bd 32c9 e6bd 04a2 4ebd
000003b0: 8d28 473d 2c5a 97bc bd73 023d 73b7 87bd
000003c0: daaa ebbd 293a a6bc 91c5 8ebc 56f8 27bd
000003d0: dc02 90bc 2f6a e2bd 780b 16be bab5 eabd
000003e0: f877 abbc ccbf cebd 0aac 1dbe 95a8 25bd
000003f0: e5ef 65bd 51b0 f0bc 0eff c83d 5b9e 363c

conv4.bias f4 [128]
-0.010751698 0.01714129 0.02894392 0.02812603 -0.012568512 0.024605036 0.039096 0.0043071928
-0.034327213 0.021877604 -0.038539294 0.012955456 0.03092469 -0.015481208 0.014345825 0.0022521345
0.033338603 0.035872612 0.025684122 0.021912584 -0.025488352 0.036096446 -0.028533675 0.024462959
0.03867351 0.014462074 0.019328546 -0.032374017 0.01957827 -0.027384233 -0.026246017 -0.025433512
-0.0018583635 0.040311847 -0.0064650727 0.0096993875 0.011025076 0.00374567 -0.015001843 -0.041409038
-0.015623081 -0.013236351 0.033174153 -0.0029861552 0.0013317221 0.016739348 0.03528889 0.041655935
0.019380543 0.038690493 -0.019936565 0.03913757 -0.007346529 -0.030937113 -0.013834143 0.021543518
0.025672799 0.033391546 0.0030447822 0.024002671 0.016393134 0.013760221 -0.0142934 -0.03785945
0.027250115 0.03835257 -0.015168616 -0.024288598 -0.01162961 0.0018522389 0.04062785 -0.0017142042
0.027885765 0.03964732 -0.023635674 -0.0071450626 0.04015685 -0.020137245 0.0033627297 0.024430666
0.031315815 -0.038493063 -0.031107992 -0.032495875 0.036657356 -0.019040013 0.03872795 0.0046584234
0.009499131 -0.020620093 -0.037387017 0.004817356 -0.010092424 0.033385254 -0.040094916 -0.022880493
-0.006198065 0.027564753 0.02121913 0.0003520953 -0.018830419 0.026800124 -0.011373989 -0.039028764
-0.03506361 0.00029670823 0.035777666 0.0029853869 0.038971543 0.005086967 -0.0023056546 -0.00014194148
0.034640934 -0.0112647945 -0.026501602 0.041131 0.03303439 -0.023830822 -0.0036323904 0.020076191
-0.03621945 0.016040076 -0.016279638 0.004821825 0.0091698775 -0.016547862 -0.03555139 0.02561608
00000000: e427 30bc e46b 8c3c cd1b ed3c 8f68 e63c
00000010: 29ec 4dbc 8090 c93c 2123 203d 5a23 8d3b
00000020: b19a 0cbd a938 b33c 61db 1dbd 1f43 543c
00000030: c755 fd3c e5a4 7dbc c00a 6b3c 8c98 133b
00000040: 0f8e 083d 29ef 123d 8267 d23c 0582 b33c
00000050: f3cc d0bc ded9 133d 74bf e9bc 8b66 c83c
00000060: 1d68 1e3d 56f2 6c3c e656 9e3c 9e9a 04bd
00000070: 9c62 a03c e654 e0bc e301 d7bc f159 d0bc
00000080: 5594 f3ba 091e 253d f6d8 d3bb 2eea 1e3c
00000090: 85a2 343c ea79 753b 4aca 75bc 869c 29bd
000000a0: f3f7 7fbc 48dd 58bc 9fe1 073d 5fb3 43bb
000000b0: 2e8d ae3a f520 893c 158b 103d 6a9f 2a3d
000000c0: f2c3 9e3c ec79 1e3d 0252 a3bc b74e 203d
000000d0: 27bb f0bb d46f fdbc 9aa8 62bc 087c b03c
000000e0: c34f d23c 93c5 083d f88a 473b 40a1 c43c
000000f0: e54a 863c 8d72 613c dd2e 6abc 8312 1bbd
00000100: a23b df3c 9617 1d3d c985 78bc e2f8 c6bc
00000110: 1f8a 3ebc d3c6 f23a 6369 263d 26af e0ba
00000120: b070 e43c 3a65 223d 9a9f c1bc 2121 eabb
00000130: 827b 243d ddf6 a4bc 3e61 5c3b d222 c83c
00000140: 0345 003d e7aa 1dbd 30d6 febc 651a 05bd
00000150: 0626 163d cdf9 9bbc 33a1 1e3d b0a5 983b
00000160: 3ea2 1b3c 78eb a8bc 2123 19bd e9da 9d3b
00000170: b25a 25bc fabe 083d 913a 24bd df6f bbbc
00000180: 2319 cbbb 7acf e13c bed3 ad3c 6e99 b839
00000190: 4042 9abc ef8b db3c f859 3abc a0dc 1fbd
000001a0: dc9e 0fbd 818f 9b39 9a8b 123d 7ba6 433b
000001b0: a0a0 1f3d 92b0 a63b 771a 17bb 20d6 14b9
000001c0: a7e3 0d3d f98f 38bc e319 d9bc fb78 283d
000001d0: 124f 073d db38 c3bc 660d 6ebb d376 a43c
000001e0: d95a 14bd 7a66 833c e05c 85bc 6600 9e3b
000001f0: 413d 163c 628f 87bc 569e 11bd d0d8 d13c

batch_norm4.weight f4 [128]
1.1520765 1.2730209 1.159231 1.07855 1.3020245 1.0051472 1.1304544 1.0502988
1.0508723 1.5458238 1.1372089 1.0414608 1.1672843 1.1394613 1.1507685 1.1684959
1.3564372 1.2480049 1.1234467 1.2310776 1.107178 1.1677737 1.1842828 1.1479009
1.3414142 1.2441384 1.0195603 1.1424916 1.1201766 1.1128174 1.1838397 1.12939
1.2303061 1.2558829 1.0473894 1.0364927 1.1654246 1.3179407 1.1837633 1.0864977
1.245815 1.0712742 1.3527263 1.2538455 1.0231582 1.0711378 1.184983 1.1036013
1.1017994 1.2870833 1.0536015 1.2056653 1.1869628 1.2651167 1.2602351 1.2920134
1.2712808 1.2712317 1.2074891 1.1163208 1.2977536 1.1906444 1.1066291 1.0840821
1.1762908 1.108999 1.0431174 1.0118723 1.1940193 1.2999479 1.1566648 1.2396208
1.1451933 1.1752212 0.9478134 1.3577095 1.0882583 1.1315781 1.2648594 1.2269379
1.273182 1.1393408 1.1297213 1.321324 1.216254 1.178289 1.0635017 1.1173443
1.1193454 1.1250168 1.250541 1.2378433 1.1725545 1.0841281 1.2827395 1.6094117
1.2368183 1.2008944 1.1743193 1.224432 1.2486827 0.9631486 1.131178 1.2794715
1.034762 1.2602873 1.0156552 1.2445772 1.2559072 1.4732084 1.1435642 1.1140846
1.1517303 1.2280006 1.2500861 1.1685717 1.272502 1.1151662 1.138405 1.2077056
0.99824804 1.1131572 1.1188644 1.1144452 1.190511 1.1058011 1.5462092 1.0915674
00000000: 3e77 933f 59f2 a23f ae61 943f ed0d 8a3f
00000010: bda8 a63f aaa8 803f bbb2 903f 3170 863f
00000020: fc82 863f 8edd c53f 1090 913f 964e 853f
00000030: 9269 953f ded9 913f 624c 933f 4691 953f
00000040: bc9f ad3f a0be 9f3f 1acd 8f3f f393 9d3f
00000050: 02b8 8d3f 9c79 953f 9496 973f 6bee 923f
00000060: 76b3 ab3f ed3f 9f3f f480 823f 2a3d 923f
00000070: f261 8f3f cd70 8e3f 0f88 973f da8f 903f
00000080: ac7a 9d3f c5c0 a03f db10 863f cbab 843f
00000090: a22c 953f 48b2 a83f 8e85 973f 5b12 8b3f
000000a0: de76 9f3f 831f 893f 2326 ad3f 027e a03f
000000b0: d9f6 823f 0b1b 893f 86ad 973f cf42 8d3f
000000c0: c307 8d3f 25bf a43f 6adc 863f 3e53 9a3f
000000d0: 66ee 973f 58ef a13f 624f a13f b260 a53f
000000e0: 54b9 a23f b8b7 a23f 018f 9a3f 9ae3 8e3f
000000f0: ca1c a63f 0967 983f 06a6 8d3f 34c3 8a3f
00000100: b290 963f aef3 8d3f df84 853f 0885 813f
00000110: a0d5 983f b164 a63f 980d 943f e5ab 9e3f
00000120: b295 923f a66d 963f e6a3 723f 6dc9 ad3f
00000130: 0c4c 8b3f 8dd7 903f eae6 a13f 4d0c 9d3f
00000140: a1f7 a23f ebd5 913f b59a 903f 2521 a93f
00000150: 36ae 9b3f 2dd2 963f d320 883f 2305 8f3f
00000160: b646 8f3f 8d00 903f ba11 a03f a671 9e3f
00000170: 4416 963f b6c4 8a3f cf30 a43f 3401 ce3f
00000180: 1050 9e3f e8b6 993f 1850 963f 30ba 9c3f
00000190: d6d4 9f3f e890 763f 71ca 903f b9c5 a33f
000001a0: 1573 843f 1851 a13f fd00 823f 4e4e 9f3f
000001b0: 91c1 a03f 1892 bc3f 5060 923f 539a 8e3f
000001c0: e66b 933f 202f 9d3f d202 a03f c293 953f
000001d0: 58e1 a23f c4bd 8e3f 41b7 913f 1996 9a3f
000001e0: 2f8d 7f3f ef7b 8e3f f336 8f3f 24a6 8e3f
000001f0: aa62 983f e48a 8d3f 2fea c53f 7bb8 8b3f
